data.pth (torch, 9450 bytes, 6 tensors)

l1.weight f4 [8, 120]
0	0x3f9d4ee0	1.2289696
1	0xbf5b492c	-0.85658526
2	0xbcd01339	-0.025399791
3	0xbf0a2063	-0.5395567
4	0xbef37dbf	-0.47556874
5	0x3fa74f2a	1.3071034
6	0x3f885674	1.0651383
7	0x3ec02f9f	0.37536332
8	0x3ad5a514	0.0016299807
9	0xbe452348	-0.1925174
10	0xbf10bf30	-0.5654173
11	0x3fa3178c	1.2741561
12	0xbf7d24a1	-0.98884016
13	0xbe8b3688	-0.27190042
14	0xbe31a683	-0.17348675
15	0xbf8950aa	-1.0727742
16	0xbeec3fdf	-0.4614248
17	0xbfa333ec	-1.275022
18	0xbeb26f1f	-0.34850404
19	0xbefee6f1	-0.4978557
20	0xbe45f1a5	-0.19330461
21	0xbf22ebce	-0.6364106
22	0xbea56e78	-0.32310843
23	0x3ee3c15c	0.4448346
24	0xbcbb756c	-0.02288314
25	0x3f1081fa	0.5644833
26	0xbe49c504	-0.19704062
27	0xbf22075a	-0.6329247
28	0x3f42b168	0.7605195
29	0x3f7cb809	0.98718315
30	0xbc0804cb	-0.008301924
31	0x3f8ee767	1.1164368
32	0xbf173ac9	-0.59074074
33	0x3dd3b4d5	0.10337225
34	0xbf7d6ce1	-0.9899426
35	0xbc6f511c	-0.01460674
36	0xbef8be9c	-0.48582923
37	0x3fb3faaf	1.4060878
38	0x3f1a3858	0.60242224
39	0x3f238c94	0.6388638
40	0xbf8e4eab	-1.1117758
41	0x3f13367a	0.57505
42	0x3f0aca0b	0.54214543
43	0x3f000745	0.5001109
44	0xbed7d539	-0.42154863
45	0x3fc41f0e	1.5321977
46	0x3f93b6c6	1.1540153
47	0x3f05a9f2	0.5221244
48	0xbe390d05	-0.18071373
49	0xbd6f70ed	-0.058457304
50	0xbd3ed28f	-0.046587523
51	0x3f780c0a	0.9689337
52	0xbedbe517	-0.4294822
53	0xbf7e3802	-0.9930421
54	0x3f3ee1b9	0.74563175
55	0xbf69733d	-0.91191465
56	0xbedd75c8	-0.43253922
57	0xbe391ef3	-0.18078212
58	0xbeb100d0	-0.34570932
59	0x3fb534cb	1.4156736
60	0x3fb8b45e	1.4430044
61	0xbf1a2e76	-0.60227144
62	0x3f4619d6	0.7738317
63	0xbebe647f	-0.37186047
64	0x3fac2ed6	1.3451793
65	0xbe7a1755	-0.24422963
66	0xbeaa8038	-0.33300948
67	0x3dc18148	0.094484866
68	0x3ee91d53	0.45530185
69	0xbf98b9dc	-1.193172
70	0xbf0d7c7a	-0.5526806
71	0xbd378e55	-0.044813473
72	0xbf0d202b	-0.5512721
73	0xbf0fd0c2	-0.56177914
74	0xbf644d58	-0.8918052
75	0xbecf8412	-0.4053045
76	0x3fc09c8d	1.5047776
77	0x3f1a84ce	0.60358894
78	0xbe47bcba	-0.19505587
79	0xbec2e1a0	-0.38062763
80	0xbe3171dd	-0.17328592
81	0xbf989c11	-1.1922628
82	0x3fa216d4	1.2663217
83	0xbf119853	-0.56873053
84	0x3e4ee383	0.20203976
85	0xbf0271bc	-0.50954795
86	0xbea87d85	-0.32908264
87	0x3ecdb9cd	0.40180817
88	0xbf82b486	-1.0211341
89	0x3ff1f6e5	1.8903471
90	0xbb8dda44	-0.004328998
91	0xbf4f507b	-0.8098218
92	0xbfa99c46	-1.3250816
93	0x3ee2c8f5	0.44293943
94	0x3ea84346	0.32863826
95	0xbd9e318b	-0.07724293
96	0xbf98a9c6	-1.1926811
97	0x3f84bad8	1.036952
98	0x3edb70eb	0.42859587
99	0x3f15c4a3	0.5850317
100	0xbf023295	-0.5085843
101	0x3e8379f8	0.25678992
102	0xbecb0e31	-0.39659265
103	0x3d4404ac	0.047856018
104	0xbeaea17c	-0.34107578
105	0xbe979f42	-0.29613692
106	0x3e9e0438	0.30862594
107	0xbf98991d	-1.1921726
108	0x3fdbc791	1.7170278
109	0xbd3fa863	-0.046791445
110	0xbc887f24	-0.016662188
111	0x3ec41d8f	0.383038
112	0x3f91f851	1.1403905
113	0x3e06d1a2	0.13165906
114	0x3f96be75	1.1776873
115	0x3f9664b4	1.1749482
116	0xbea3db62	-0.32003313
117	0x3ed0a043	0.4074727
118	0x3eb0393b	0.34418663
119	0x3dd4fdd7	0.103999786
120	0x3fa8e081	1.3193513
121	0xbeab8812	-0.3350225
122	0x3ec7fa56	0.3905818
123	0xbd4d4700	-0.05011654
124	0xbf248500	-0.6426544
125	0xbec9c179	-0.3940542
126	0x3f93d829	1.1550342
127	0x3f02ddc5	0.51119643
128	0xbf4cc77f	-0.79991907
129	0x3f53658c	0.82576823
130	0xbf8c784b	-1.097421
131	0xbd58acb8	-0.052899092
132	0x3f9204f5	1.1407763
133	0xbd8c1a16	-0.06840913
134	0xbcd42f0b	-0.025901338
135	0x3f8eb6d6	1.1149547
136	0xbf3f03cf	-0.74615186
137	0xbf5d0c32	-0.86346734
138	0x3e742237	0.23841177
139	0xbd742592	-0.059606142
140	0xbee72ed3	-0.45152912
141	0xbf11d0bf	-0.56959146
142	0xbe3129a9	-0.17301048
143	0x3f926b5b	1.1439012
144	0x3fbf31b7	1.4937047
145	0x3c1b9f30	0.0094984025
146	0xbee6d787	-0.4508631
147	0xbf6846f9	-0.90733296
148	0xbd57bdbb	-0.052671175
149	0x3f59d927	0.85096973
150	0xbe879706	-0.2648241
151	0x3f40bfbb	0.7529256
152	0x3f5cb694	0.8621609
153	0x3f0e825e	0.55667675
154	0x3f8dd35c	1.1080127
155	0x3ea6e247	0.3259451
156	0xbf8c1e37	-1.0946721
157	0x3f26a8f9	0.6510158
158	0xbecd4b62	-0.40096575
159	0x3f525b43	0.82170504
160	0xbee77416	-0.45205754
161	0x3f5ca0c1	0.8618279
162	0x3f150ed2	0.5822574
163	0x3f5d49f1	0.8644095
164	0x3f3d6c36	0.7399324
165	0x3deb0edf	0.11477446
166	0x3f9643ce	1.1739442
167	0xbf0f5cb8	-0.5600085
168	0xbd825f8a	-0.06365879
169	0xbe9781ed	-0.29591313
170	0x3e6a5df2	0.228874
171	0x3d689338	0.056781024
172	0x3df0b6cf	0.11753618
173	0xbf959fde	-1.1689413
174	0xbf104aae	-0.5636395
175	0xbf674c78	-0.9035106
176	0x3f818224	1.0117841
177	0xbd6ca124	-0.057770863
178	0xbf25c498	-0.64753103
179	0x3f2268cd	0.63441163
180	0x3f32bff5	0.69824153
181	0x3f3cd148	0.7375684
182	0x3efdb553	0.49552402
183	0xbf2f874b	-0.68565816
184	0xbf2d5281	-0.67704016
185	0xbe8beb82	-0.27328116
186	0x3d5f3fcf	0.054504212
187	0x3d115a50	0.03548652
188	0x3f724762	0.9464017
189	0xbfa84bb3	-1.3148102
190	0x3ecbb7e2	0.3978873
191	0x3d8a9ab0	0.067677855
192	0xbf87a7c3	-1.0598072
193	0xbf80f0b5	-1.0073458
194	0xbf119d1e	-0.56880367
195	0xbd932d75	-0.071864046
196	0xbd28a88f	-0.041176375
197	0x3d6fca94	0.058542803
198	0xbee556bd	-0.4479274
199	0x3bd39c7f	0.006457865
200	0x3eccb16e	0.39979118
201	0x3e6d8f64	0.2319923
202	0x3f137218	0.5759597
203	0xbeef0c35	-0.46689
204	0x3e51aa21	0.20475055
205	0x3f855236	1.0415714
206	0xbeac7753	-0.33684787
207	0xbf941130	-1.1567745
208	0x3fac89f4	1.34796
209	0xbf4a4b71	-0.79021364
210	0x3fa6ee71	1.3041517
211	0xbefd5f35	-0.494867
212	0xbf73e946	-0.9527782
213	0x3efdd9bb	0.49580178
214	0x3f032837	0.5123324
215	0x3ebcde6a	0.36888438
216	0xbf2d53c2	-0.6770593
217	0xbeccf4de	-0.4003057
218	0x3e909ace	0.28243107
219	0x3f4d5144	0.80202127
220	0x3e6482fe	0.22315595
221	0x3f92935c	1.145122
222	0xbeaf8579	-0.3428152
223	0xbcbff380	-0.02343154
224	0x3f120113	0.5703289
225	0x3f308802	0.6895753
226	0x3f23e10c	0.6401527
227	0xbf59cda0	-0.85079384
228	0xbee986e0	-0.45610714
229	0x3d01e8d0	0.031716168
230	0x3f86658a	1.0499737
231	0x3f159fb4	0.5844681
232	0x3f0f7076	0.56030977
233	0x3f8df3d9	1.1090041
234	0x3ef81bcc	0.48458707
235	0xbf78d3c2	-0.97198117
236	0xbe490979	-0.1963252
237	0x3f854562	1.0411799
238	0xbf45e186	-0.77297246
239	0xbedce17b	-0.43140778
240	0xbf0f3012	-0.55932724
241	0xbe30bf9b	-0.17260592
242	0x3f0087ed	0.50207406
243	0x3e979dd5	0.29612604
244	0x3ee65685	0.44987884
245	0xbf6d4766	-0.9268707
246	0xbf0f4779	-0.55968434
247	0x3ecc9cda	0.39963418
248	0xbdae1a54	-0.085011154
249	0xbe1346ce	-0.14382479
250	0x3f2f239a	0.684137
251	0xbf729d1e	-0.9477099
252	0x3f895417	1.0728787
253	0x3f77b8da	0.96766436
254	0x3e8c2ea9	0.2737935
255	0x3f6f80f7	0.9355616

l1.bias f4 [8]
0	0x3f988e7d	1.1918484
1	0x3fa84d22	1.3148539
2	0x3f901b20	1.1258278
3	0x3f28902d	0.65844995
4	0x3f8c0798	1.0939817
5	0x3f7cf230	0.9880705
6	0x3f843cab	1.0331014
7	0x3f90b15c	1.1304126

l2.weight f4 [8, 8]
0	0xbe800844	-0.25006306
1	0x3fa5f296	1.2964656
2	0xbfc0981e	-1.5046422
3	0xbe0da9d0	-0.1383431
4	0x3c441f56	0.011970362
5	0xbf2185a1	-0.63094527
6	0x3e2c930d	0.1685297
7	0x4010524b	2.2550228
8	0x406c2d57	3.6902673
9	0x3faeddb5	1.366141
10	0xbff53274	-1.9156022
11	0xbf816d84	-1.0111547
12	0xbf1f960c	-0.6233833
13	0x40102c29	2.2526953
14	0x404c2229	3.189585
15	0x3ecf338b	0.40469012
16	0xbebeca9a	-0.37263948
17	0x3f80a135	1.0049196
18	0x3f7b582a	0.981814
19	0xc00a194f	-2.1577947
20	0x3fe4050d	1.7814041
21	0x3f4fae76	0.8112558
22	0xbf75aa78	-0.9596324
23	0xbf7dbbf8	-0.9911494
24	0x3f8f8648	1.1212854
25	0x406d77c8	3.7104359
26	0x40457f5b	3.0858982
27	0xbf3b5fd5	-0.73193103
28	0x3fd82bc8	1.6888361
29	0xbfe52ee4	-1.7904935
30	0x3f041bd2	0.5160495
31	0xbfc93198	-1.571826
32	0xbe6dd6da	-0.2322649
33	0x3ddbaa74	0.10725871
34	0x3d200b70	0.039073408
35	0xbeb2d738	-0.34929824
36	0xbe3b78a4	-0.1830774
37	0xbda01be8	-0.07817823
38	0x3e2bd326	0.16779765
39	0xbe958b49	-0.2920783
40	0xbf4fdbd0	-0.8119478
41	0x3f569a30	0.8382902
42	0x3e9f22f6	0.3108136
43	0xc0160fe5	-2.3447201
44	0x3f6059cf	0.8763704
45	0x3fe9129d	1.8208805
46	0xbda4f315	-0.08054177
47	0xbebd0bfe	-0.36923212
48	0xbf34fe72	-0.7070075
49	0xbf812a9a	-1.0091126
50	0x3fea8568	1.8321962
51	0xbfca2cab	-1.5794882
52	0x402242f5	2.5353367
53	0xbfa51e83	-1.2899936
54	0xbf1b956d	-0.6077488
55	0x404f72bd	3.241378
56	0xbfba4f51	-1.4555455
57	0xbfa749ab	-1.3069357
58	0x3faa0cc6	1.3285148
59	0xbd1a7716	-0.037711225
60	0x3e7b7974	0.2455805
61	0x400af81c	2.1713934
62	0x4007a60f	2.1195104
63	0x4037ff9e	2.8749766

l2.bias f4 [8]
0	0x3e46a901	0.19400407
1	0x3f9bb1ab	1.2163595
2	0x3efa1cdd	0.48850146
3	0x3f97a743	1.1847919
4	0xbe5d726b	-0.21625678
5	0x3e8d3a81	0.27583697
6	0x3f226b13	0.6344463
7	0x3e8745d6	0.26420468

l3.weight f4 [31, 8]
0	0xc0686b93	-3.6315658
1	0xbe5d4484	-0.21608168
2	0x3d8eb1b4	0.06967488
3	0x3e62cc8e	0.22148344
4	0xbda96604	-0.08271411
5	0xbea03db6	-0.31297082
6	0xbe026609	-0.12734236
7	0xbfa056dd	-1.2526509
8	0xc068f531	-3.6399653
9	0xbf02915f	-0.5100307
10	0x3e6b9e03	0.23009495
11	0xbf775399	-0.96611935
12	0x3e1cdb6e	0.15318081
13	0x3ebe9c5a	0.37228662
14	0xbeb76375	-0.35818067
15	0xbefecb27	-0.49764368
16	0xbe7e0bbe	-0.24809167
17	0x3f72dc09	0.94866997
18	0xc0001276	-2.0011268
19	0x3df18ed3	0.1179482
20	0x3dcdb094	0.10043445
21	0xbfbd19e2	-1.4773524
22	0xc059da5a	-3.4039521
23	0xc0a5a8ce	-5.176856
24	0xbf9e1253	-1.2349342
25	0xbf8ce7dd	-1.1008259
26	0x3f24beb4	0.6435349
27	0xbe057460	-0.13032675
28	0x3e5cea76	0.21573815
29	0xbd9833aa	-0.07431729
30	0x3f756cac	0.95868945
31	0xbfd963a1	-1.6983529
32	0xbf488bfa	-0.7833859
33	0xc0443e40	-3.0662994
34	0xbf591d7d	-0.8481062
35	0xbedf8f8a	-0.436642
36	0x3e8df1ed	0.27723637
37	0xbf9ebc1b	-1.2401155
38	0x3f7d0154	0.9883015
39	0xbe707e3c	-0.23485655
40	0xc04d40cb	-3.2070796
41	0xbffde3ff	-1.9835204
42	0xbffc4517	-1.9708585
43	0x3f5e5528	0.8684869
44	0x3e82b5fd	0.2552947
45	0xc04baaea	-3.1823068
46	0x3de221e5	0.11041621
47	0xbf1590eb	-0.5842425
48	0xc082a546	-4.082675
49	0xc04ff36b	-3.249232
50	0x3e721725	0.23641641
51	0xbe65f1ce	-0.22455522
52	0xbea46cce	-0.3211426
53	0x3eea5bfd	0.45773306
54	0x3ec19d55	0.37815347
55	0xbf005c93	-0.5014126
56	0xbfa3475b	-1.2756151
57	0xbf928230	-1.144598
58	0x3f24e2b3	0.64408416
59	0x3f658ba8	0.89666224
60	0xbd95180c	-0.07279977
61	0xbf3f269c	-0.7466829
62	0xbe1d2281	-0.15345193
63	0xc06847a2	-3.6293721
64	0xc035c87c	-2.8403616
65	0xbf05b931	-0.52235705
66	0xbf849b24	-1.0359845
67	0xbe638ecd	-0.22222443
68	0xbe8de006	-0.2770998
69	0xbf8c6e9f	-1.0971259
70	0x3e16b1b2	0.14716223
71	0x3e1eb84b	0.1549999
72	0x3f23d840	0.64001846
73	0xc0268be0	-2.6022873
74	0x3e800b30	0.25008535
75	0x3ea60cc8	0.32431626
76	0xbe3979db	-0.1811289
77	0xbf7b00fc	-0.9804838
78	0x3f1c59be	0.61074436
79	0xbfab6e93	-1.339312
80	0x3ec176c2	0.37785918
81	0xbf540272	-0.8281623
82	0xbfa4eebb	-1.2885355
83	0x3e3322d9	0.17493762
84	0x3eab7e19	0.33494642
85	0xc084f68c	-4.155096
86	0x3f0af248	0.5427594
87	0xbf33a2bf	-0.70170206
88	0x3ec17c9c	0.37790382
89	0x3eacf7a1	0.33782676
90	0xbf9f78d4	-1.2458749
91	0x3f02bd6e	0.51070297
92	0xbe48847e	-0.19581792
93	0xbf3dcdca	-0.74142134
94	0xbff83282	-1.9390414
95	0xbf851b46	-1.0398948
96	0x3fcdc916	1.6076992
97	0x3f05214c	0.5200393
98	0xc07dac94	-3.9636583
99	0x3e9d975e	0.30779546
100	0xbeb33a8d	-0.35005608
101	0xc056b2bf	-3.3546598
102	0xbf593578	-0.8484721
103	0xbfee387b	-1.8610986
104	0xbf8dcfdf	-1.1079062
105	0x3d0af214	0.03392227
106	0xbf4b7624	-0.79477143
107	0x3f2eb890	0.6825037
108	0xbe820106	-0.25391406
109	0xc0761565	-3.8450558
110	0xbc6ecdb2	-0.014575409
111	0xbfe87c84	-1.8162999
112	0xbe88d85d	-0.26727572
113	0xbf0c2108	-0.547379
114	0x3e14efe4	0.14544636
115	0x3e5b154e	0.21394846
116	0xbe4d8b92	-0.20072773
117	0xc078ab92	-3.8854718
118	0x3fa80598	1.3126707
119	0xc09912be	-4.783538
120	0xbf3541e1	-0.7080365
121	0x3e86b001	0.26306155
122	0xc082b9c9	-4.085179
123	0xbea0511c	-0.31311882
124	0xbe7fc68a	-0.2497808
125	0xc04de69a	-3.2171998
126	0x3d32e811	0.043678347
127	0xbe13aaae	-0.14420578
128	0xbfca5125	-1.5806013
129	0x3e1ae408	0.1512605
130	0xbfc95aec	-1.5730872
131	0xc0029807	-2.040529
132	0x3e29ba92	0.16575077
133	0xc0446f70	-3.0693016
134	0xc04c0fdb	-3.1884677
135	0x3f68cb8b	0.9093558
136	0xbfbcb4a1	-1.4742624
137	0x3fba1440	1.453743
138	0xc07de638	-3.9671764
139	0xbfe9ef78	-1.8276205
140	0x3dc473a0	0.09592366
141	0xc073aaff	-3.8073118
142	0xc005b4c3	-2.0891578
143	0xc04fd123	-3.2471397
144	0xbfb74a28	-1.4319506
145	0xbfd33ac5	-1.650231
146	0xbdfd2b4c	-0.12361774
147	0xbfc33e00	-1.5253296
148	0xbe8c9e31	-0.2746444
149	0x3f0bb183	0.54567736
150	0x3e73976c	0.23788232
151	0x3d4b2998	0.049600214
152	0x3f1c8bd1	0.6115084
153	0xbf468375	-0.7754434
154	0xc00c93a4	-2.1965113
155	0xbfc7d25b	-1.561107
156	0x3ddd8d20	0.10817933
157	0xbff85e33	-1.9403747
158	0x3f3ee670	0.7457037
159	0x3b1fcddc	0.0024384176
160	0x3f094ced	0.53633004
161	0x3e49e09e	0.19714591
162	0xc0588d32	-3.3836179
163	0xc04fb233	-3.2452514
164	0x3db69100	0.08914375
165	0xc04fb04a	-3.2451348
166	0x3e855b33	0.26046142
167	0x3e3d2b9d	0.18473668
168	0xbd560c37	-0.052257743
169	0xbf963a2b	-1.1736501
170	0xbf89e00f	-1.0771502
171	0xbf93e0bc	-1.1552958
172	0xbda9390c	-0.08262834
173	0xbef70478	-0.48245597
174	0xbf108dab	-0.5646617
175	0xbfaa3b3b	-1.3299326
176	0xbfe25fbe	-1.7685468
177	0xbe965d05	-0.29367843
178	0xbfae0de7	-1.3597993
179	0xbfae2d1d	-1.3607517
180	0xbe781c30	-0.24229503
181	0x3f4fa107	0.81105083
182	0xc031a4eb	-2.7756908
183	0x3e3b227d	0.18274875
184	0xc0094c91	-2.1452982
185	0x3f2a94ba	0.6663319
186	0xc073cd4e	-3.8094058
187	0x3e0f4df9	0.13994588
188	0x3eacba87	0.3373606
189	0xc06ff11a	-3.7490907
190	0xc024b245	-2.5733807
191	0xbe675808	-0.22592175
192	0x3eef5af6	0.46749085
193	0x3dbd3bc0	0.09239912
194	0xc083e6dc	-4.121931
195	0xbfcd8b5c	-1.6058154
196	0xbe8eec16	-0.27914494
197	0xbec08079	-0.37598017
198	0xbff8bd9a	-1.9432862
199	0x3edbd823	0.42938337
200	0xc02085ff	-2.5081785
201	0xc02bb71d	-2.6830513
202	0x3f148589	0.5801626
203	0x3f138109	0.5761877
204	0xbe8c922f	-0.2745528
205	0x3f79b461	0.9754086
206	0xbd41df5f	-0.047332164
207	0xc015d65f	-2.3412092
208	0x3ed659ee	0.41865486
209	0x3f624f23	0.88402003
210	0xc0036205	-2.0528576
211	0xc0303aad	-2.7535813
212	0xbdd415b0	-0.10355699
213	0xbfcb1b3d	-1.5867687
214	0xbf8d43f3	-1.1036361
215	0xbecebe59	-0.403796
216	0x3d3653bf	0.04451346
217	0xbeebaaf1	-0.46028855
218	0xbff65098	-1.9243345
219	0xc025de29	-2.5916846
220	0xbe91d2e5	-0.28481212
221	0x3ee61bcd	0.44943085
222	0xbd566097	-0.05233821
223	0x3e3b6ee5	0.18304022
224	0xbfc03afa	-1.5017998
225	0xbf7a38de	-0.9774302
226	0xc01f3d31	-2.4881098
227	0xbfa816c0	-1.3131943
228	0xbd74a240	-0.059725046
229	0xc04eda5a	-3.2320771
230	0xbed9dfa5	-0.4255344
231	0x3f7a3846	0.97742116
232	0xbf82446f	-1.0177134
233	0x3e93a9a0	0.2884035
234	0xc06ffacc	-3.7496824
235	0x3f991a0d	1.1961075
236	0xbdc14990	-0.09437859
237	0xc04ea7d4	-3.2289934
238	0xc026d7ea	-2.6069283
239	0xc045db28	-3.0915012
240	0xbf7dc993	-0.991357
241	0x3e7cf835	0.24704058
242	0xbe8652a1	-0.26234916
243	0x3e06050a	0.1308786
244	0x3da67a3c	0.08128783
245	0x3edb44fa	0.42826062
246	0xc0164c1d	-2.3483956
247	0xbfc965bf	-1.5734175

l3.bias f4 [31]
0	0xbe360ad6	-0.17777571
1	0xbe825546	-0.25455683
2	0xbee9b710	-0.45647478
3	0x3e025e98	0.12731397
4	0xbee4a84c	-0.4465965
5	0x3fc666ab	1.5500082
6	0xbee66efd	-0.45006552
7	0xbe777c21	-0.24168445
8	0x3e96c997	0.29450676
9	0xbde1c240	-0.11023378
10	0xbf29ec00	-0.6637573
11	0x3dc14b2d	0.09438167
12	0xbf0e8565	-0.55672294
13	0xbf4616b4	-0.7737839
14	0x3e674b25	0.22587259
15	0xbed1a880	-0.40948868
16	0x3ee43532	0.44571835
17	0x3f7f3354	0.99687696
18	0xbf07739d	-0.52910787
19	0xbf4579db	-0.7713906
20	0xbeb7fced	-0.35935155
21	0xbf8f42e9	-1.1192294
22	0xbf078727	-0.529406
23	0xbcfab93e	-0.030605908
24	0xbf1648b5	-0.5870469
25	0xbf155ce4	-0.58344865
26	0xbebd3d3f	-0.3696079
27	0xbf0c6ac9	-0.5485044
28	0x3eee39b3	0.46528396
29	0x3f1c8c50	0.611516
30	0xbd763325	-0.06010737
